assets/converted_model.tflite (tflite, 15472 bytes, 8 tensors)

sequential/dense_10/MatMul/ReadVariableOp/transpose f4 [11, 32]
0	0xbe9cdda2	-0.30637842
1	0x3db7f24e	0.08981763
2	0xbf08128b	-0.53153294
3	0xbf1689a7	-0.5880379
4	0x3ea2e693	0.3181654
5	0xbf17fb4a	-0.5936781
6	0xbe93cb8e	-0.28866237
7	0x3cd4a9ef	0.025959937
8	0x3e86fbcb	0.26363978
9	0xbf1ba8a8	-0.60804224
10	0x3ebe9746	0.37224787
11	0xbe518908	-0.2046243
12	0xbf02238c	-0.5083549
13	0x3f082078	0.53174543
14	0x3e0fb76c	0.14034814
15	0x3e6f21ce	0.23352739
16	0xbf098eee	-0.5373372
17	0xbf4281fd	-0.75979596
18	0x3dda98ca	0.106736735
19	0xbf9b8129	-1.2148792
20	0x3e598edc	0.21245903
21	0xbf8ea76f	-1.1144847
22	0x3dcadc0a	0.0990525
23	0xbe9c04ef	-0.30472514
24	0xbf0a782c	-0.5408962
25	0x3ee5e47a	0.44900876
26	0xbf739e31	-0.95163256
27	0xbe95c026	-0.2924816
28	0x3e5d8857	0.21634041
29	0xbe121b98	-0.14268339
30	0x3e509626	0.20369777
31	0xbf3544e3	-0.7080824
32	0xbf2aa0d0	-0.6665163
33	0x3de97f7a	0.11401267
34	0xbdee7777	-0.1164388
35	0xbcf527c6	-0.029926192
36	0x3e815d34	0.2526642
37	0xbf0e645f	-0.55621904
38	0xbd8dd216	-0.06924836
39	0xbda6f814	-0.08152786
40	0x3e80b4fb	0.25138077
41	0xbed3dc58	-0.41379046
42	0xbea55682	-0.32292563
43	0xbc9e1594	-0.019297399
44	0xbe42e183	-0.19031338
45	0xbd5b6311	-0.053561274
46	0xbd5e3245	-0.05424716
47	0x3e7e8a29	0.24857391
48	0xbd657cba	-0.05602715
49	0xbe5f8b3b	-0.21830456
50	0x3d851f1d	0.06500075
51	0xbeeb0c8f	-0.4590802
52	0x3e532a26	0.20621547
53	0xbeab6100	-0.33472443
54	0xbf271724	-0.65269685
55	0xbe5d5699	-0.21615066
56	0xbeef145e	-0.46695226
57	0xbe8f5eec	-0.28002107
58	0xbf19110e	-0.5979165
59	0xbe6b82ba	-0.22999087
60	0xbe4f0289	-0.20215811
61	0x3ec068c9	0.37579945
62	0x3e2e4ce5	0.1702152
63	0xbf0a6009	-0.5405279
64	0xbcb21a65	-0.021741102
65	0xbfb8f948	-1.4451075
66	0x3e057d31	0.13036038
67	0xbec307aa	-0.38091785
68	0xbf70a81f	-0.9400653
69	0xbda5d801	-0.0809784
70	0xbee3aa87	-0.4446604
71	0xbf429b93	-0.7601864
72	0x3e76bb68	0.24094927
73	0xbf9506c4	-1.164269
74	0xbe997cea	-0.29978114
75	0xbfdac9e4	-1.7092862
76	0x3ecbdc29	0.39816406
77	0xbf81b02e	-1.0131891
78	0xbf1ab819	-0.6043716
79	0xbf8c3298	-1.095294
80	0xbd8eb911	-0.06968892
81	0xbf1e42b8	-0.61820555
82	0x3e02566d	0.12728281
83	0xbf18aeb8	-0.596416
84	0xbf3a0792	-0.726678
85	0x3ed23e2d	0.4106306
86	0xbf73e4b0	-0.95270824
87	0xbf48c90d	-0.7843178
88	0x3edbb579	0.4291189
89	0xbef558b7	-0.47919247
90	0x3f157996	0.5838865
91	0x3e833da6	0.25632972
92	0x3e370ec4	0.17876726
93	0x3f1bab0a	0.6080786
94	0xbf7501c7	-0.95705837
95	0x3ec0dd77	0.37668964
96	0x3e15548e	0.14583036
97	0xbc0689b5	-0.008211543
98	0x3eba3415	0.3636786
99	0x3e5b7d0c	0.2143442
100	0xbf293671	-0.66098696
101	0xbfb57985	-1.417771
102	0xbe35ed6c	-0.1776635
103	0xbf1781fb	-0.5918271
104	0xbf6f49ce	-0.9347199
105	0x3ef0c3fe	0.4702453
106	0xbec76c89	-0.38949993
107	0x3e0fffa3	0.14062361
108	0xbd9722d4	-0.0737969
109	0xbe68a993	-0.22720937
110	0xbfa2a28a	-1.2705853
111	0xbe689334	-0.22712404
112	0x3ebcf659	0.36906698
113	0xbf8074f4	-1.0035691
114	0xbfede9c2	-1.8586962
115	0xbf2020d9	-0.6255012
116	0xbefa1629	-0.48845032
117	0xbf82a7d8	-1.0207472
118	0x3eaa84f0	0.33304548
119	0x3ebc4b90	0.367764
120	0xbfde6131	-1.737341
121	0xbfc202e8	-1.5157137
122	0xc002a87b	-2.0415332
123	0x3e671ccd	0.2256958
124	0xbfb6a8f4	-1.427031
125	0xbef07c31	-0.4696975
126	0x3e6bdd5c	0.2303366
127	0xc00792c4	-2.1183329
128	0xbf9ffa0d	-1.2498184
129	0x3decb76d	0.11558423
130	0xbfc0864c	-1.5040984
131	0xbe13a918	-0.14419973
132	0x3e133a35	0.14377673
133	0xbe7b4d02	-0.24541095
134	0xbba93c33	-0.005164647
135	0xbddadd1c	-0.106867045
136	0x3cb0e514	0.021593608
137	0xbf738f7d	-0.9514082
138	0xbf60f3a1	-0.8787175
139	0x3dd27962	0.10277058
140	0xbf2b1606	-0.6683048
141	0xbfbaa9dd	-1.4583088
142	0x3e223832	0.1584175
143	0x3eea083a	0.457094
144	0xbf4e3b84	-0.80559564
145	0xbf44b1a3	-0.7683355
146	0x3d64f740	0.05589986
147	0xbf36b531	-0.71370226
148	0x3e518110	0.2045939
149	0xbeb1e777	-0.34746906
150	0xbfa1f9bf	-1.2654341
151	0xbf38021b	-0.7187821
152	0xbec5f0c7	-0.3866026
153	0xbf737176	-0.95095
154	0xbdde895a	-0.108660415
155	0xbfa3769a	-1.2770569
156	0xbf597e29	-0.8495813
157	0xbe269230	-0.16266704
158	0x3e17f31f	0.14838837
159	0xbea468d4	-0.32111228
160	0x3d9f12ef	0.07767283
161	0xbf5abc25	-0.85443336
162	0x3aa2e569	0.0012427989
163	0xbf8a6f20	-1.0815163
164	0xbf30248c	-0.68805766
165	0x3ea5286c	0.32257402
166	0xbf363d1b	-0.7118699
167	0x3c4d0e73	0.012515652
168	0xbf22c882	-0.635872
169	0x3e66c82a	0.22537294
170	0x3e08666d	0.13320322
171	0xbdf8261e	-0.12116645
172	0xbee51604	-0.4474336
173	0xbf297b0a	-0.6620337
174	0xbd31c4e0	-0.043400645
175	0xbdf922a8	-0.12164813
176	0x3d745f69	0.059661303
177	0x3e5d0f6a	0.21587911
178	0xbea3cabe	-0.31990618
179	0xbe8d72b2	-0.27626568
180	0xbe20dbd1	-0.15708853
181	0x3eb81389	0.35952404
182	0xbe48cca7	-0.19609319
183	0x3e69b688	0.22823536
184	0x3e9cb62e	0.30607742
185	0xbcfd1546	-0.030893933
186	0xbeec1d7e	-0.4611625
187	0x3dade8f8	0.08491701
188	0xbbb0b9da	-0.005393249
189	0xbe67fbbf	-0.22654627
190	0x3e3619e8	0.1778332
191	0xbe567051	-0.20941283
192	0xbf4aa945	-0.79164535
193	0xbf660ad8	-0.89860296
194	0xbf88306d	-1.0639778
195	0xbedd7a2d	-0.43257275
196	0xbf245553	-0.64192694
197	0x3e841c7f	0.2580299
198	0xbe877067	-0.26452944
199	0xbc1c4725	-0.009538447
200	0xbef319cc	-0.4748062
201	0xbf97e440	-1.1866531
202	0xbfac7fe9	-1.3476535
203	0xbf79127b	-0.97293824
204	0xbe9f07fe	-0.31060785
205	0xbfa19ea2	-1.2626536
206	0x3ebcb4e0	0.36856747
207	0xbf4d4384	-0.80181146
208	0xbf65f09a	-0.89820254
209	0x3db4cf19	0.08828563
210	0x3e9558a3	0.29169187
211	0x3f4094ce	0.7522706
212	0xbf600a86	-0.8751606
213	0xbe43f1af	-0.19135164
214	0xbfcdcbfc	-1.6077876
215	0x3ea403b4	0.32034075
216	0x3eb42939	0.351877
217	0x3f1026c8	0.56309175
218	0x3f0002d5	0.5000432
219	0xbe0ef25d	-0.13959642
220	0x3e817db4	0.25291216
221	0x3ec29b45	0.38009086
222	0xbf222e16	-0.6335157
223	0x3e90ebc6	0.2830488
224	0xbf234632	-0.63778985
225	0xbeadcfa6	-0.33947486
226	0x3eac61ef	0.33668467
227	0xbe434864	-0.19070584
228	0x3ec664fc	0.3874892
229	0xbf3ed224	-0.745394
230	0xbeba54ce	-0.36392826
231	0xbdfc541a	-0.123207286
232	0x3e2f84a5	0.17140444
233	0xbebf9e58	-0.37425494
234	0xbef25215	-0.4732825
235	0x3d36f800	0.044670105
236	0x3f4492b4	0.7678635
237	0x3da27fc2	0.07934524
238	0xbe56b0c1	-0.20965864
239	0xbdffad71	-0.12484253
240	0x3e9c4cb4	0.3052727
241	0xbf05c8bd	-0.5225943
242	0xbebfb2d5	-0.37441126
243	0xbeff32f7	-0.4984357
244	0x3c41e1b5	0.011833598
245	0xbf857698	-1.0426817
246	0xbf28114e	-0.65651405
247	0xbe736093	-0.23767309
248	0xbf55c061	-0.8349667
249	0xbe67fd9f	-0.22655343
250	0xbf8c0736	-1.0939701
251	0x3e33a478	0.17543209
252	0x3dde4a15	0.10853974
253	0xbf155ab6	-0.5834154
254	0x3e365854	0.17807132
255	0xbf5475e6	-0.829924

sequential/dense_10/MatMul_bias f4 [11]
0	0xbeb8c6ee	-0.3608927
1	0x3da524b4	0.08063641
2	0xbdb5475d	-0.08851502
3	0xbec5a13e	-0.3859958
4	0xbece18b3	-0.4025322
5	0xbd8a7a87	-0.067616515
6	0xbe0973d4	-0.13423091
7	0x3e9a8881	0.3018227
8	0x3ee454f0	0.44596052
9	0x3ed1986b	0.40936598
10	0xbea349b6	-0.31892174

sequential/dense_7/MatMul/ReadVariableOp/transpose f4 [32, 28]
0	0xbe6ef1eb	-0.23334472
1	0xbe0e5f9c	-0.1390366
2	0x3e7031f4	0.23456556
3	0x3e0bd271	0.13654496
4	0xbe0668ba	-0.13125888
5	0xbd98b557	-0.07456463
6	0x3e4bc849	0.19900621
7	0xbd114512	-0.03546626
8	0x3e74767c	0.23873323
9	0xbd4f83f5	-0.050662953
10	0xbdd46116	-0.1037008
11	0xbe159580	-0.14607811
12	0x3e9f2a50	0.3108697
13	0xbe27c5e0	-0.16384077
14	0x3eece20a	0.46266204
15	0x3e2a5a7d	0.16636081
16	0x3e0bed2a	0.1366469
17	0x3b5f10a2	0.0034037014
18	0xbec427d4	-0.38311636
19	0x3e7e9fd1	0.24865653
20	0xbdad1f9a	-0.08453293
21	0xbe2289af	-0.15872835
22	0xbd0f6e9f	-0.035017606
23	0x3de60fc0	0.11233473
24	0x3db7d0f5	0.08975402
25	0x3dcf4f6e	0.10122572
26	0xbdab6273	-0.08368387
27	0xbd9dae19	-0.07699222
28	0xbd5c36d0	-0.05376321
29	0xbdf5fef7	-0.12011521
30	0xbd840639	-0.064464994
31	0xbe76ef89	-0.24114813
32	0xbdbaf2e4	-0.09128359
33	0xbd94c9b5	-0.07265035
34	0x3e9fed2b	0.31235632
35	0x3e5786d5	0.21047528
36	0x3f0b1779	0.5433269
37	0xbdfa2be2	-0.12215401
38	0x3d209725	0.039206643
39	0x3df62701	0.12019158
40	0xbe1b7748	-0.15182221
41	0x3cb2ac90	0.0218108
42	0xbe538ad4	-0.20658427
43	0x3cea55e2	0.028605405
44	0xbef3c230	-0.4760909
45	0x3e86502c	0.2623304
46	0x3ebcd10c	0.3687824
47	0x3e019bf3	0.12657146
48	0x3e8b24d3	0.27176532
49	0xbe0862dd	-0.13318963
50	0xbea7831e	-0.32717222
51	0xbd01954c	-0.03163652
52	0x3c3e4c32	0.011614846
53	0xbe2b0257	-0.16700111
54	0xbe17a7f6	-0.14810166
55	0xb884e650	-6.3371495e-05
56	0xbeaffa7b	-0.3437079
57	0x3e539967	0.20663987
58	0xbe0aed1e	-0.13567016
59	0xbe1596d4	-0.14608318
60	0x3ea6be83	0.32567224
61	0xbe466246	-0.19373426
62	0x3deed31c	0.1166136
63	0xbde33f5d	-0.1109607
64	0xbe90e2b2	-0.28297955
65	0xbe073b3e	-0.13206193
66	0x3c8a9e90	0.016921312
67	0xbc2fa46e	-0.010720355
68	0x3deeccd6	0.11660163
69	0x3e281b7b	0.16416733
70	0xbe5b9006	-0.2144166
71	0xbe58bc8a	-0.21165672
72	0x3df42940	0.1192193
73	0xbd9a7c78	-0.07543272
74	0xbe8160c1	-0.2526913
75	0x3e4e46dd	0.2014422
76	0xbe6432f2	-0.22285059
77	0xbea6cc4f	-0.3257775
78	0x3e6f22a2	0.23353055
79	0xbeac7a8d	-0.3368725
80	0xbe8c64a6	-0.2742054
81	0xbe25b6b8	-0.16182983
82	0x3e000834	0.12503129
83	0xbea5154e	-0.32242817
84	0xbecb208e	-0.39673275
85	0x3dd45fc5	0.10369829
86	0xbc4aa6c1	-0.012368859
87	0x3cabba94	0.02096299
88	0xbe8d6011	-0.27612355
89	0xbd4287d5	-0.04749282
90	0x3dee7342	0.116430774
91	0xbe645bd3	-0.22300653
92	0x3e516453	0.20448427
93	0xbbbc51a2	-0.005747036
94	0xbe3a8d27	-0.18217908
95	0xbdd76829	-0.10517914
96	0xbe391171	-0.1807306
97	0xbe609f67	-0.21935807
98	0x3e2d6923	0.16934638
99	0xbe9082cd	-0.28224793
100	0x3ddc894c	0.10768375
101	0xbe0166a6	-0.12636814
102	0xbdac89b0	-0.08424699
103	0x3e7c3ee4	0.24633366
104	0xbd9b9157	-0.07596081
105	0x3f10a33c	0.56499076
106	0x3e3884f0	0.18019462
107	0xbeca6ac8	-0.39534593
108	0x3e5b530b	0.21418397
109	0x3da1dc91	0.07903398
110	0x3dc92a0e	0.098224744
111	0x3ebaef4e	0.365107
112	0xbd81f416	-0.06345384
113	0x3e541a3d	0.20713134
114	0xbddfca82	-0.10927297
115	0x3e17d1c4	0.14826113
116	0x3e8f52e6	0.27992934
117	0xbd229c98	-0.03970012
118	0xbecba259	-0.397723
119	0xbc09b16e	-0.008404119
120	0xb99f59e2	-0.0003039381
121	0xbf0a59f3	-0.540435
122	0x3c150c63	0.0090971915
123	0x3e0891fe	0.13336942
124	0x3e50d7cb	0.20394818
125	0xbe0f337c	-0.13984483
126	0xbe2d79cd	-0.16940995
127	0x3e2cefc9	0.16888346
128	0xbe294c35	-0.16532977
129	0x3dfbcbc8	0.122947276
130	0x3cad2746	0.021136891
131	0xbd02a7ea	-0.031898417
132	0x3e21ecc7	0.1581298
133	0xbe41d9a2	-0.18930677
134	0x3ead7f37	0.3388612
135	0xbe971647	-0.29509184
136	0xbdbec7ba	-0.093154386
137	0x3e2a03ee	0.16603062
138	0x3c24b2c6	0.0100523885
139	0x3d6a83a5	0.057254452
140	0xbf24a430	-0.6431303
141	0xbd2f7cc9	-0.042843614
142	0xbece7ec2	-0.40331084
143	0xbcb0f797	-0.021602435
144	0x3e67560f	0.22591422
145	0x3d7f5cf6	0.062344514
146	0xbe2e87cc	-0.1704399
147	0x3d9c0629	0.076183625
148	0xbdea3d15	-0.11437432
149	0x3d3cd8f6	0.046105348
150	0x3e5a7b9f	0.2133622
151	0xbeb86a48	-0.36018586
152	0xbdab85ea	-0.083751515
153	0xbd3bfb0c	-0.045893714
154	0xbd165132	-0.036698528
155	0xbc7c9f4e	-0.015418841
156	0x3ec0d694	0.3766371
157	0xbd136cad	-0.035992313
158	0x3ea84970	0.32868528
159	0x3d99f8af	0.07518136
160	0xbda1b3a6	-0.07895593
161	0xbdbd14a2	-0.09232451
162	0x3ea8f11c	0.32996452
163	0x3e9a8e02	0.30186468
164	0x3ebaf903	0.36518106
165	0x3d0a23a3	0.033725392
166	0xbeb14f09	-0.34630612
167	0xbe6c9c59	-0.23106517
168	0x3ec26cc5	0.3797361
169	0xbe728369	-0.23682941
170	0x3e0b869e	0.13625571
171	0xbe49ec6d	-0.19719096
172	0x3e90b966	0.28266448
173	0x3e5caa90	0.2154944
174	0xbe0baf04	-0.13640982
175	0x3e6143c3	0.21998505
176	0xbdc15229	-0.09439499
177	0xbe2231b2	-0.1583927
178	0x3e6ecc2a	0.2332007
179	0x3dff788d	0.12474165
180	0xbdb45675	-0.08805553
181	0xbe8346a4	-0.25639832
182	0xbe19d57e	-0.15022847
183	0x3e181110	0.14850259
184	0x3c6640e1	0.014053554
185	0x3e025c73	0.12730579
186	0xbe7fd78b	-0.24984567
187	0x3cf1eb15	0.029531041
188	0x3d6f2c68	0.05839196
189	0xbe4596b5	-0.19295771
190	0x3e45aff6	0.19305405
191	0xbe07d2eb	-0.13264053
192	0x3d68b06f	0.056808885
193	0xbe075683	-0.13216595
194	0x3e5f8946	0.2182971
195	0x3e2a2ae8	0.1661793
196	0x3dbdd696	0.09269445
197	0xbcafed0e	-0.021475341
198	0xbd905c2f	-0.070488326
199	0x3daa3c97	0.08312338
200	0xbe53fb11	-0.20701243
201	0x3e6b2c49	0.22966112
202	0x3e1fffd3	0.15624933
203	0xbed63bff	-0.41842648
204	0x3d113698	0.035452455
205	0xbeba25b1	-0.3635688
206	0x3db1dae5	0.08684329
207	0x3eac72a8	0.33681226
208	0xbe095e77	-0.13414942
209	0x3e1d319d	0.15350957
210	0xbbbe7b64	-0.005813049
211	0x3eeba377	0.4602315
212	0x3d42c901	0.047554974
213	0x3d56622a	0.05233971
214	0x3ceb7db8	0.02874647
215	0xbde5737e	-0.11203669
216	0xbcc07303	-0.023492342
217	0xbde22741	-0.11042643
218	0x3ed5a4d6	0.41727322
219	0xbc8f599e	-0.017498787
220	0xbe2cb411	-0.16865565
221	0xbe4c6f78	-0.19964397
222	0xbd6290cb	-0.055313867
223	0xbd889b9c	-0.06670305
224	0xbeec4aef	-0.4615092
225	0xbe0f9eb9	-0.14025392
226	0xbc538892	-0.012910979
227	0x3e4847b9	0.1955861
228	0xbdff7c48	-0.12474877
229	0x3c7eb5a3	0.015546235
230	0x3ec47b46	0.383753
231	0x3d90b6ed	0.0706614
232	0xbe244301	-0.16041185
233	0xbd2288b1	-0.03968114
234	0xbe001b4c	-0.12510413
235	0xbdd42eac	-0.103604645
236	0x3e48b6f8	0.19601047
237	0xbe6572cb	-0.22407071
238	0x3f0381cd	0.51369935
239	0x3e01f2d7	0.12690292
240	0xbe20f18e	-0.15717146
241	0xbe797ca1	-0.24363948
242	0x3e944e05	0.28965774
243	0x3e5a3f02	0.21313098
244	0x3db45a4a	0.08806284
245	0xbd17ca43	-0.037058126
246	0x3e364d8f	0.17803024
247	0xbe12e2c2	-0.14344314
248	0x3c8acf31	0.0169445
249	0xbe8150f7	-0.25257084
250	0x3d7aa329	0.061190758
251	0xbdb7b733	-0.08970489
252	0xbeaf00c4	-0.34180272
253	0xbdc4a2f2	-0.09601392
254	0xbe8434b3	-0.25821456
255	0x3e725a84	0.23667341

sequential/dense_7/MatMul_bias f4 [32]
0	0xbe6037fd	-0.21896358
1	0xbcee99b1	-0.02912602
2	0xbdbbb7f1	-0.091659434
3	0xbe787ddf	-0.24266766
4	0x3d22b91c	0.039727315
5	0x3daf57d0	0.08561671
6	0xbe1ebd69	-0.15501942
7	0xbe321184	-0.17389494
8	0xbe2d6c8f	-0.16935943
9	0xbe5486af	-0.20754503
10	0xbce606a3	-0.028079337
11	0xbe13e041	-0.14441015
12	0x3dd61e8a	0.104550436
13	0xbe55c80c	-0.20877093
14	0x3dc08e92	0.09402193
15	0x3d86e521	0.065866716
16	0x3dc19b4b	0.09453448
17	0xbda1237b	-0.078680955
18	0xbe1a825b	-0.15088789
19	0x3d0218cc	0.03176193
20	0x3d84835d	0.06470368
21	0xbd930685	-0.07178978
22	0xbe1c029e	-0.15235373
23	0xbe27671c	-0.16347927
24	0x3e7fd561	0.24983741
25	0xbc1f9eac	-0.00974242
26	0xbdf831a7	-0.121188454
27	0x3e2aef3d	0.16692825
28	0xbe1b550b	-0.1516916
29	0x3da65a67	0.08122712
30	0x3e0e30f0	0.13885856
31	0xbe3959ff	-0.18100737

sequential/dense_8/MatMul/ReadVariableOp/transpose f4 [32, 32]
0	0xbee07901	-0.4384232
1	0xbeb0a6be	-0.34502214
2	0xbe2bec1c	-0.16789287
3	0xbe7f300c	-0.24920672
4	0x3eb2229d	0.34792033
5	0x3e068669	0.13137211
6	0x3e8adb49	0.27120426
7	0x3d79425d	0.060854305
8	0x3d0a8ae2	0.033823855
9	0xbe61627c	-0.22010225
10	0xbe17f867	-0.14840852
11	0xbd407e8a	-0.046995677
12	0xbf3096ee	-0.689803
13	0xbe8af9c4	-0.2714368
14	0xbec379e8	-0.38178945
15	0xbfa0d3ab	-1.2564596
16	0x3dfb0bb3	0.12258091
17	0x3cdcdb93	0.02696017
18	0xbf04595a	-0.5169884
19	0xbd4dd42d	-0.050251175
20	0xbf6d40e9	-0.9267717
21	0x3cc962c8	0.024583235
22	0xbf001ec8	-0.5004697
23	0x3e1a4c11	0.1506808
24	0xbf004d87	-0.501183
25	0x3e2ca405	0.16859443
26	0x3e9dcf85	0.30822387
27	0xbf5a8b04	-0.8536837
28	0xbf5f1f2f	-0.8715696
29	0xbe3ffe32	-0.18749312
30	0xbed8f1d2	-0.42371994
31	0xbde08042	-0.10961963
32	0xbdea975a	-0.11454649
33	0xbee7ee9e	-0.45299238
34	0xbdad98c8	-0.08476406
35	0xbdb9401b	-0.0904543
36	0xbe2a7f4f	-0.16650127
37	0x3d915dae	0.07097946
38	0x3cb8694a	0.022511143
39	0x3eec4c9f	0.46152207
40	0x3ce58bfd	0.028020853
41	0x3ec52f24	0.38512528
42	0x3d36afc7	0.044601228
43	0x3efb8758	0.49126697
44	0x3d67d444	0.056598917
45	0x3eaad957	0.33368942
46	0x3dcbe6b6	0.09956114
47	0xbe8fa7d0	-0.28057718
48	0xbea1029b	-0.314473
49	0xbd2f3755	-0.042777378
50	0xbe7c6470	-0.24647689
51	0xbd267c85	-0.040646095
52	0xbcd40c96	-0.025884908
53	0xbe5e0901	-0.21683122
54	0x3e28cc46	0.16484174
55	0xbeb14145	-0.3462011
56	0x3cbd03c4	0.023073085
57	0x3da81075	0.08206264
58	0x3e845085	0.25842682
59	0xbf3ae0ec	-0.72999454
60	0x3e8c7953	0.27436313
61	0xbe1ab0f9	-0.15106572
62	0x3d282f26	0.04106059
63	0xbda7a0af	-0.08184945
64	0xbeb53009	-0.3538821
65	0x3e91afd9	0.28454474
66	0x3e22e6a3	0.15908293
67	0xbf31cf53	-0.69456977
68	0xbe6f590d	-0.23373814
69	0x3d886196	0.06659238
70	0x3e94237e	0.28933328
71	0xbf368755	-0.7130025
72	0xbca99343	-0.020700103
73	0xbdc7c87c	-0.09755036
74	0xbe9e3a9d	-0.30904093
75	0x3e94d45f	0.29068276
76	0x3e4730e8	0.1945225
77	0xbf291752	-0.6605121
78	0x3e0f94ef	0.14021657
79	0x3db3fb95	0.0878822
80	0xbe5bbbdd	-0.21458383
81	0x3e6b00bf	0.22949503
82	0xbf58a2ef	-0.84623617
83	0x3ea9402f	0.3305678
84	0xbb1cd272	-0.0023929146
85	0x3d1d4d4b	0.03840379
86	0x3ebb508b	0.36584887
87	0xbe96e074	-0.2946812
88	0x3dbfa407	0.093574576
89	0xbf334580	-0.70027924
90	0x3ba0bfce	0.0049056774
91	0x3d50ff5f	0.05102479
92	0xbf0314a5	-0.51203376
93	0x3f278952	0.6544391
94	0xbeb9fe02	-0.36326605
95	0x3dc29ea9	0.09502918
96	0x3e7a148f	0.24421905
97	0x3c9b2b97	0.018941684
98	0x3df7ed7d	0.12105844
99	0x3e511499	0.20418014
100	0xbf18311e	-0.59449947
101	0xbdc7f695	-0.09763829
102	0xbea73245	-0.3265554
103	0x3e472648	0.19448197
104	0x3e5e59a5	0.21713884
105	0x3e16dc38	0.14732444
106	0xbdc883cd	-0.09790764
107	0xbed1bb5a	-0.4096325
108	0xbeb40622	-0.3516093
109	0x3ecd5a12	0.4010778
110	0xbe4f1d3f	-0.20226
111	0xbdc54e73	-0.096341036
112	0xbedc0ac2	-0.42976958
113	0x3d574d3a	0.052563883
114	0x3e87a5cd	0.26493683
115	0xbea738a4	-0.326604
116	0x3ed49e19	0.4152687
117	0xbd8f1c9a	-0.06987877
118	0xbee5d7b1	-0.44891122
119	0xbe1d2535	-0.15346225
120	0xbecd0690	-0.4004407
121	0xbeeb848f	-0.45999572
122	0xbd22bb1f	-0.039729234
123	0x3eb522b1	0.3537803
124	0x3e1f0a45	0.15531261
125	0xbf1ec448	-0.6201825
126	0xbe700fbc	-0.23443502
127	0x3eff674a	0.4988349
128	0x3c39e84c	0.011346888
129	0xbfaab305	-1.3335882
130	0xbe4b81ea	-0.19873777
131	0x3e38dca1	0.18052913
132	0xbd960143	-0.073244594
133	0x3c8de1a5	0.01731951
134	0xbe6d9255	-0.23200352
135	0x3e291f8e	0.16515943
136	0x3be43150	0.0069638863
137	0xbdeff4aa	-0.11716588
138	0xbf955529	-1.1666614
139	0xbefdf1f6	-0.49598664
140	0xbe2fd5c1	-0.17171384
141	0x3ed3100b	0.41223177
142	0xbecb8cd9	-0.39755896
143	0xbe4faf1e	-0.20281646
144	0xbe2a899e	-0.1665406
145	0x3d7bf19a	0.061509706
146	0x3dd377e2	0.103256
147	0xbf19d1c3	-0.60085696
148	0xbe29286a	-0.16519323
149	0x3e3170d5	0.17328198
150	0xbeba7aa8	-0.36421704
151	0xbe0a093d	-0.13480087
152	0xbe3d105c	-0.18463272
153	0x3ed58e76	0.41710252
154	0x3e696be4	0.22795063
155	0xbe9f7b04	-0.3114854
156	0x3ee3754f	0.44425437
157	0x3d436635	0.047704894
158	0xbeb17283	-0.34657678
159	0xbef7dc88	-0.4841044
160	0x3e82a56b	0.2551683
161	0xbd91c979	-0.07118506
162	0xbe79013f	-0.24316882
163	0xbf0b3bb2	-0.5438796
164	0xbe811464	-0.2521087
165	0x3c654dc4	0.013995592
166	0x3d13d862	0.03609503
167	0x3e401f47	0.18761931
168	0x3ea7b214	0.3275305
169	0xbdadafb5	-0.08480779
170	0x3da8193e	0.082079396
171	0x3ebf169a	0.3732193
172	0x3e2c61fd	0.16834255
173	0x3e8f3f65	0.27978054
174	0x3e789fd4	0.2427972
175	0xbec6ad55	-0.38804117
176	0x3dd44e7f	0.103665344
177	0x3d5279b2	0.05138559
178	0x3e31bbe4	0.17356831
179	0xbe667aec	-0.22507828
180	0x3f24a366	0.64311826
181	0xbf0a87f7	-0.54113716
182	0xbdf888c5	-0.12135462
183	0xbf016cb3	-0.50556487
184	0xbe4e8f95	-0.2017196
185	0x3dce9055	0.10086123
186	0xbd91ecb4	-0.07125226
187	0xbe6f7634	-0.23384935
188	0x3e488e72	0.19585589
189	0xbd0419a3	-0.03225101
190	0xbbae3f3d	-0.005317597
191	0xbe32ab17	-0.17448078
192	0x3e19d287	0.15021716
193	0xbd908626	-0.07056837
194	0xbd9c46bf	-0.07630681
195	0x3ccf89a0	0.02533418
196	0xbe1ca82e	-0.1529853
197	0x3ec87d86	0.39158267
198	0x3dd03866	0.10167007
199	0x3f0453f5	0.5169061
200	0xbe8ab689	-0.27092388
201	0xbd7a985c	-0.061180457
202	0x3d9ff7d1	0.07810939
203	0x3d4ec5b7	0.050481524
204	0x3e50197a	0.20322219
205	0x3ece0f8e	0.40246242
206	0xbf00c865	-0.5030578
207	0x3eee5565	0.46549526
208	0x3e7353f3	0.23762493
209	0xbdea4340	-0.11438608
210	0x3eae8a9e	0.34090132
211	0x3e7b83df	0.24562024
212	0xbe606a64	-0.21915585
213	0xbe95b50c	-0.2923969
214	0x3e08f184	0.13373381
215	0xbf406fbd	-0.751705
216	0x3e4ac7ea	0.19802824
217	0xbe0f953a	-0.14021769
218	0x3eb034f8	0.34415412
219	0x3de61ec1	0.112363346
220	0x3f34075c	0.7032373
221	0xbe25d72d	-0.16195364
222	0xbd534911	-0.051583353
223	0xbe2b0690	-0.16701722
224	0xbf5e353d	-0.86799985
225	0xbc2ec478	-0.010666959
226	0xbe420eca	-0.18950954
227	0xbf2b7cbd	-0.6698721
228	0x3ea0f2aa	0.31435138
229	0x3c39e7a7	0.011346734
230	0x3dbbe7ab	0.091750465
231	0x3e3f9d64	0.18712384
232	0xbf076939	-0.5289493
233	0xbf2db99d	-0.6786135
234	0xbf034bad	-0.5128735
235	0xbcb49219	-0.022042321
236	0x3dbeff3a	0.09326024
237	0xbeb2cd9d	-0.34922495
238	0x3f0106a3	0.5040075
239	0x3e7417b3	0.23837166
240	0x3e7ff834	0.24997026
241	0x3c5a8a80	0.013338685
242	0xbf1be5a3	-0.6089727
243	0xbd8c63f7	-0.06855004
244	0x3e7e36d8	0.24825609
245	0x3e3299bd	0.17441459
246	0xbde85af0	-0.1134547
247	0x3d65b11f	0.05607712
248	0xbf26ed4f	-0.65205854
249	0x3e9583a0	0.29201984
250	0x3e50d1e5	0.20392568
251	0xbc893c5e	-0.016752418
252	0xbecd21ba	-0.40064794
253	0x3dbfde95	0.09368626
254	0x3e02f08c	0.12787074
255	0xbe211d1a	-0.15733758

sequential/dense_8/MatMul_bias f4 [32]
0	0x3ce37d37	0.027769668
1	0xbd825a0d	-0.06364832
2	0x3d7de40f	0.06198507
3	0xbcab6ff2	-0.020927403
4	0x3dcf3d7f	0.10119151
5	0xbd2e0d3b	-0.042493086
6	0xbdb6c5e5	-0.08924464
7	0x3d21597e	0.039391987
8	0x3dd5546a	0.10416491
9	0x3d87a94d	0.066240884
10	0x3b86de70	0.004115872
11	0x3d5984cc	0.05310516
12	0x3d5cfa2f	0.05394953
13	0x3d5b61a1	0.053559903
14	0x3dbfd6f7	0.09367173
15	0x3c5be7bc	0.013421949
16	0xbdd4ee42	-0.103970066
17	0x3ce9efb9	0.028556691
18	0xbbfc0629	-0.007691164
19	0x3d829a47	0.06377082
20	0x3d3bf90d	0.04589181
21	0x3d2b2062	0.04177893
22	0x3b9c7bf4	0.0047755186
23	0x3d0bf16c	0.034165785
24	0x3d588a63	0.05286635
25	0x3cb6becb	0.022307774
26	0x3cad2bcf	0.021139054
27	0x3d7a950e	0.061177306
28	0x3d0c9f14	0.034331396
29	0x3d8c6963	0.068560384
30	0x3db6c378	0.089240015
31	0x3dc92ded	0.09823213

sequential/dense_9/MatMul/ReadVariableOp/transpose f4 [32, 32]
0	0xbd2e6b54	-0.042582825
1	0x3cce7cac	0.025205933
2	0x3db8b085	0.090180434
3	0x3e1bd95f	0.15219639
4	0xbf470d8f	-0.77755064
5	0x3b769b46	0.0037629171
6	0xbd58b452	-0.05290634
7	0xbebfbf07	-0.3745043
8	0xbe9a3e02	-0.30125433
9	0x3d697365	0.056994814
10	0xbf3a7510	-0.72834873
11	0xbe37ec86	-0.1796132
12	0x3df1b855	0.11802737
13	0xbda84d4e	-0.0821787
14	0xbefb0ab7	-0.49031612
15	0x3f6226ba	0.8834034
16	0x3d0aaf42	0.033858545
17	0xbd81ca0f	-0.06337368
18	0x3eb52573	0.35380134
19	0xbe87c0b9	-0.26514223
20	0xbec79c60	-0.38986492
21	0x3bdaa11c	0.0066720378
22	0xbe1ba575	-0.15199836
23	0x3e4c651d	0.19960447
24	0x3dcc0868	0.09962541
25	0x3e6105f1	0.21974923
26	0x3eb2a262	0.34889513
27	0x3e9329f3	0.28742942
28	0xbc105ca1	-0.008811147
29	0xbcce9936	-0.025219541
30	0x3ea2b6ad	0.31779996
31	0xbf201f74	-0.62547994
32	0x3f17b277	0.5925669
33	0xbf73186d	-0.94959146
34	0x3e92df54	0.2868601
35	0xbe99e8fa	-0.3006056
36	0xbd5d29be	-0.053994887
37	0xbf29f45d	-0.66388494
38	0xbe91a54e	-0.2844643
39	0x3e85b7b8	0.2611673
40	0xbde12f75	-0.1099538
41	0xbec2191b	-0.3790978
42	0xbdf94878	-0.121720254
43	0xbd0d1398	-0.034442514
44	0xbdbf83ad	-0.09351287
45	0x3e98bbda	0.2983082
46	0x3e959124	0.29212296
47	0x3d478c75	0.048717935
48	0xbe97bad9	-0.2963474
49	0xbe5e1a8c	-0.21689814
50	0x3d8c7793	0.068587445
51	0xbe8d9a4e	-0.27656788
52	0x3f0d9a3f	0.55313486
53	0x3e7a914c	0.24469489
54	0xbe1d9e11	-0.15392329
55	0x3e2fd654	0.17171603
56	0x3ef3b396	0.4759795
57	0x3d5615e6	0.052266978
58	0xbbba7b0e	-0.005690939
59	0xbb3dcb62	-0.0028960337
60	0x3ecf9566	0.4054367
61	0x3eb850ba	0.3599909
62	0x3ec8c4bd	0.392126
63	0x3e8326c7	0.25615522
64	0xbefa3ba2	-0.4887362
65	0xbe4f6b04	-0.20255667
66	0x3d994e53	0.07485642
67	0x3c9ef60d	0.019404436
68	0xbf03c8b9	-0.51478153
69	0x3ea55724	0.32293046
70	0xbe2ba02c	-0.1676032
71	0xbe33cff1	-0.17559792
72	0x3e9b2df2	0.3030849
73	0x3e9c9ad5	0.30586877
74	0xbe6b777c	-0.22994798
75	0x3e44a7c5	0.19204624
76	0x3edd1cb4	0.4318596
77	0x3e2e8174	0.1704157
78	0xbf0488c2	-0.51771176
79	0x3e9eaa9a	0.30989534
80	0xbf2168d5	-0.63050586
81	0x3e2a69e3	0.16641955
82	0xbe6c15f4	-0.2305525
83	0x3e892072	0.26782566
84	0xbe94f450	-0.29092646
85	0x3e5d9479	0.21638669
86	0x3eb8d1c5	0.3609754
87	0xbf96596e	-1.1746042
88	0xbf65cced	-0.89765817
89	0xbdab1891	-0.08354295
90	0x3b769005	0.0037622463
91	0x3daa715e	0.08322404
92	0xbe0753e7	-0.132156
93	0x3e92bef6	0.28661317
94	0x3efff5f6	0.4999234
95	0x3eb6c565	0.35697475
96	0x3e0b1461	0.13581993
97	0xbe91c275	-0.2846867
98	0x3ed4d374	0.41567576
99	0xbe7e87e4	-0.24856526
100	0xbf2d3acd	-0.6766785
101	0x3d6a9335	0.057269294
102	0xbc7dfd01	-0.015502215
103	0x3e130b41	0.14359762
104	0xbec98cd8	-0.39365268
105	0xbeb941b2	-0.36182934
106	0x3dafff51	0.085936196
107	0x3e0ae89b	0.13565294
108	0x3ea8f864	0.33002007
109	0x3ec6f490	0.3885846
110	0xbcc380ef	-0.023865191
111	0x3f494897	0.7862639
112	0xbee511b8	-0.4474008
113	0xbf04bd1c	-0.5185106
114	0x3e1fc751	0.15603377
115	0xbdc39fb0	-0.09551942
116	0xbf1e16ec	-0.61753726
117	0xbe40ad3c	-0.18816084
118	0xbea29ce4	-0.31760323
119	0x3e33e89e	0.17569205
120	0x3c4a35ed	0.0123419585
121	0x3e57ee99	0.21087112
122	0x3eeb6d04	0.4598161
123	0x3ea0dd6e	0.31418937
124	0x3e1487be	0.14504907
125	0xbe95bacc	-0.29244077
126	0x3e865c87	0.26242468
127	0x3e39d4b5	0.18147548
128	0x3eb8cc6a	0.36093456
129	0xbdab0ec6	-0.08352427
130	0x3e9d0470	0.30667448
131	0xbe16a1e5	-0.14710195
132	0xbea50e9f	-0.32237718
133	0x3ea57a2b	0.3231977
134	0xbeff6e98	-0.49889064
135	0x3ec5db5b	0.38643917
136	0x3e91dc53	0.28488407
137	0x3e9b6c36	0.30355996
138	0xbda7d46b	-0.081948124
139	0x3e850ba4	0.25985444
140	0xbf0f74b0	-0.56037426
141	0xbd5c7fc6	-0.05383279
142	0xbe89b309	-0.26894405
143	0x3edce62f	0.43144366
144	0xbf0342e5	-0.5127395
145	0x3eb1315b	0.34607968
146	0x3df34463	0.11878278
147	0xbf416bb4	-0.75554967
148	0x3e395caf	0.18101762
149	0xbebd2bf4	-0.36947596
150	0x3e832fd4	0.25622427
151	0x3ec475ba	0.38371068
152	0x3f05f9a7	0.52334064
153	0x3ef1ecbf	0.47250935
154	0xbe22362b	-0.15840976
155	0x3e074e2d	0.13213415
156	0xbe33578a	-0.17513862
157	0xbf23152a	-0.6370417
158	0xbdd1f20d	-0.10251246
159	0x3b4f5aa3	0.0031639717
160	0xbe27524f	-0.16339992
161	0x3e8fdd57	0.28098556
162	0xbd624e97	-0.05525073
163	0x3e40e608	0.1883775
164	0x3d832205	0.06402973
165	0x3e5e9e04	0.21739966
166	0x3d4e0281	0.050295357
167	0xbf59762e	-0.8494595
168	0x3c9a6af7	0.018849833
169	0x3e37e5b1	0.17958714
170	0xbe8f201d	-0.27954188
171	0xbf226343	-0.6343271
172	0xbdc4014a	-0.09570558
173	0xbf2ca4fc	-0.67439246
174	0xbdf0f8a1	-0.11766172
175	0x3e203ecc	0.15648955
176	0x3f3e1240	0.742466
177	0x3ef3bb01	0.4760361
178	0x3e8d6951	0.27619413
179	0xbe2a9c11	-0.16661097
180	0x3e75e0de	0.24011561
181	0xbe7571ac	-0.23969144
182	0x3e2bd986	0.16782197
183	0x3d7a5c58	0.061123222
184	0xbf0eacad	-0.5573223
185	0xbd7823b4	-0.060580924
186	0x3e03f24b	0.12885396
187	0x3e30994f	0.17245983
188	0xbf1b9ff8	-0.6079097
189	0x3e0698d3	0.13144235
190	0xbd7000c2	-0.058594473
191	0xbf165c01	-0.58734137
192	0xbc8d9b6b	-0.017286023
193	0xbed9dc04	-0.4255067
194	0x3e7c6102	0.2464638
195	0x3b9be7f9	0.004757878
196	0x3e03011f	0.12793396
197	0xbe007939	-0.12546243
198	0xbef50e69	-0.47862557
199	0x3e9545a5	0.29154697
200	0xbe93af48	-0.28844666
201	0xbdecbb24	-0.11559132
202	0x3ea65d56	0.32493085
203	0x3e7e2e53	0.24822359
204	0x3e42bebd	0.19018073
205	0x3f0a47e0	0.5401592
206	0x3edfedb7	0.4373605
207	0x3b4e7134	0.003150058
208	0x3d838b3b	0.064230405
209	0xbdc51339	-0.09622807
210	0xbea491a9	-0.3214238
211	0x3ed9eb60	0.4256239
212	0xbe909586	-0.28239077
213	0xbdee4b14	-0.11635414
214	0xbe4267ab	-0.18984859
215	0x3e3ac598	0.18239439
216	0x3ec08274	0.37599528
217	0xbea52db9	-0.32261446
218	0xbd5a3aea	-0.05327884
219	0xbddd64f7	-0.10810273
220	0x3f363cde	0.71186626
221	0x3d966024	0.07342556
222	0x3e0f67d7	0.14004456
223	0xbdd9ba52	-0.10631241
224	0x3e8878a5	0.26654544
225	0x3e3df901	0.18552019
226	0xbdb46cf0	-0.08809841
227	0xbe7938d4	-0.24338084
228	0x3f36bb4f	0.7137956
229	0xbe483b8c	-0.19553965
230	0x3e02e85e	0.12783954
231	0x3e4fb1a6	0.20282611
232	0x3eecfcd2	0.46286637
233	0xbe3fffad	-0.18749876
234	0x3ef3eb86	0.47640628
235	0xbdc917e8	-0.09819013
236	0xbee8649c	-0.4538926
237	0x3dc1b79d	0.094588496
238	0x3edd3039	0.43200853
239	0xbf109068	-0.56470346
240	0x3e39f967	0.18161546
241	0x3e049af2	0.12949732
242	0x3e1aaf77	0.15105997
243	0xbdb1810a	-0.086671904
244	0x3e98f26e	0.2987246
245	0x3ea32067	0.3186066
246	0x3e83ddd5	0.25755182
247	0xbd5a0b31	-0.05323333
248	0xbe3a9e02	-0.18224338
249	0xbe7d6c02	-0.24748233
250	0xbe74cf58	-0.2390722
251	0xbdf444c7	-0.11927181
252	0xbd077b70	-0.033076704
253	0x3de76e67	0.113003545
254	0xbea8642e	-0.3288893
255	0x3eaef3ad	0.34170285

sequential/dense_9/MatMul_bias f4 [32]
0	0x3e24a4bc	0.16078466
1	0x3bc192ee	0.005907408
2	0x3da362d3	0.079778336
3	0x3d247563	0.04015101
4	0x3d8951d8	0.067050636
5	0x3e12c7ee	0.1433408
6	0x3dfc59bf	0.12321805
7	0x3e07585a	0.13217297
8	0x3d905ef7	0.07049363
9	0x3e0255f2	0.12728098
10	0x3e0b49c5	0.1360236
11	0xbc8537e3	-0.016262
12	0x3e28489f	0.16433953
13	0x3c97bfb2	0.018524025
14	0xbdbb29ac	-0.09138808
15	0xbdc706eb	-0.097181164
16	0x3e2de973	0.16983585
17	0x3e56f986	0.20993623
18	0x3e1d8524	0.1538282
19	0x3c641445	0.013920848
20	0x3d78716b	0.06065504
21	0x3e283157	0.16425072
22	0x3df3276b	0.11872753
23	0xbd4d2951	-0.05008823
24	0x3de7a3ca	0.11310537
25	0x3c8fdfce	0.017562773
26	0x3df2e0df	0.11859297
27	0x3e0f4095	0.1398948
28	0x3dad8cf7	0.084741525
29	0x3e144a67	0.14481507
30	0xbc3078e0	-0.010771006
31	0x3df6824b	0.1203657
